example/epoches10/my_weights.npz (npz, 5282 bytes, 15 tensors)

Variable:0 f8 [13, 1]
000000 00 00 00 00 00 00 00 00 00 00 00 00 00 00 00 00
       0.0 0.0
000010 00 00 00 00 00 00 f0 3f 00 00 00 00 00 00 00 00
       1.0 0.0
000020 00 00 00 00 00 00 f0 3f 00 00 00 00 00 00 40 40
       1.0 32.0
000030 00 00 00 00 00 00 00 00 00 00 00 00 00 00 00 00
       0.0 0.0
000040 00 00 00 00 00 00 1f 40 00 00 00 00 00 00 00 00
       7.75 0.0
000050 00 00 00 00 00 00 00 00 00 00 00 00 00 00 f0 3f
       0.0 1.0
000060 00 00 00 00 00 00 00 00
       0.0

Variable:1 f8 [3, 1]
000000 00 00 00 00 00 00 00 00 00 00 00 00 00 00 00 00
       0.0 0.0
000010 00 00 00 00 00 00 f0 3f
       1.0

Variable:2 f8 [2, 1]
000000 00 00 00 00 00 00 00 00 00 00 00 00 00 00 f0 3f
       0.0 1.0

Variable:3 f8 [4, 1]
000000 00 00 00 00 00 00 00 00 00 00 00 00 00 00 00 00
       0.0 0.0
000010 00 00 00 00 00 00 f0 3f 00 00 00 00 00 00 00 00
       1.0 0.0

Variable:5 f8 [1, 13]
000000 8e 05 a0 9e 4b 61 d2 3f 68 1b b1 16 58 76 d5 3f
       0.28718843928080495 0.3353481504058693
000010 80 7c cd f2 75 44 cf bf 00 3a 5f 00 59 c5 d9 3f
       -0.24427675586318642 0.40267014538122226
000020 c3 e7 b7 48 ae 30 d0 bf 21 16 c3 0d 8e a0 8c bf
       -0.2529712400570327 -0.01397810916422332
000030 4e f2 e3 26 ec f8 c2 bf ba 68 a8 6b b7 93 91 bf
       -0.14822151087709518 -0.01716505617705686
000040 58 08 ea bf 9a 10 87 3f b5 5e 01 71 73 54 c4 3f
       0.011262139302974969 0.15882723825301573
000050 9e 6d b4 18 98 79 bd 3f cf 38 5a d7 8b 7e ba bf
       0.11513662913460229 -0.10349344260814351
000060 b9 6c a9 5c 22 93 c3 bf
       -0.1529276802492399

Variable:6 f8 [2, 3]
000000 a8 76 fa 0a e8 58 47 3f a1 4f cb 20 e7 d2 50 3f
       0.0007125027677436684 0.00102684565643061
000010 62 f5 36 9e db a0 29 bf 9b 5e 99 df 00 39 5a 3f
       -0.00019552880176646874 0.0016005047349575755
000020 0e 9f d9 e5 ba df 40 3f 84 b3 0b 31 6e ff 54 bf
       0.0005149519526641293 -0.0012816024865813522

Variable:7 f8 [2, 2]
000000 48 52 8b 8e f4 cd 40 bf 2a c3 ff 14 9a 0a 2b bf
       -0.0005128330349984467 -0.00020630961307646054
000010 9d 8b 1f ce 92 ca 4f 3f 7d 37 44 12 98 c7 44 bf
       0.0009701935598481652 -0.0006341450248627947

Variable:8 f8 [2, 4]
000000 d3 02 a8 17 07 cc 60 bf 13 56 10 64 d0 75 51 3f
       -0.002050412990911668 0.0010656867091304353
000010 49 dc 34 ef b0 0a 2a 3f d0 aa f2 e6 b4 a0 53 3f
       0.00019868287891153445 0.0011979834196533153
000020 4d 71 f7 6d 5c 94 52 bf 4e 55 ab 86 2b d3 4b 3f
       -0.0011340048439399564 0.0008491480378675449
000030 28 4b 2c 2c 30 65 31 3f 41 75 8d c6 a5 9f 22 3f
       0.0002654306992308391 0.0001420869696415004

Variable:9 f8 [1, 1]
000000 82 2e 67 5c c1 4e bf bf
       -0.12229546075757905

Variable:15 f8 [8, 6]
000000 58 f3 d5 82 eb 85 49 bf 6e f5 d2 7b e5 72 44 3f
       -0.0007789039570266039 0.000624048283178231
000010 18 f8 c4 49 0e 59 50 3f ec 40 3b dd 66 7d 3f 3f
       0.000997795060427636 0.0004804969914689167
000020 49 d3 d7 c4 56 79 47 3f cc 69 f4 8a 3d f7 4c bf
       0.0007163690258368073 -0.0008839655401147672
000030 59 4f 03 e9 63 61 2a bf 4f 55 7c 9c 57 fd 46 3f
       -0.00020126671416297972 0.0007015874661841312
000040 48 33 33 ca 60 fb 16 bf aa ba 3a 03 3d d3 27 3f
       -8.766916521381091e-05 0.00018177146704575115
000050 ce c7 a3 55 43 f8 0b 3f db fb 97 bc 78 78 50 bf
       5.3348116766729564e-05 -0.001005285174300977
000060 37 95 a4 65 6e 44 2f bf 6e 12 08 49 fb d9 48 3f
       -0.0002385506402983546 0.0007584073046592152
000070 1d 0c 0d c0 5a 92 31 bf 64 eb 8b 5d d6 46 61 3f
       -0.000268122821626972 0.0021089732002769635
000080 9d 29 32 3a b6 51 2d bf 66 64 c7 90 85 75 40 3f
       -0.00022368764357267877 0.0005022909331798941
000090 c0 a1 c6 5f 30 2c 38 3f 01 83 ca 48 2a 11 44 bf
       0.0003688448048486913 -0.0006123978106025997
0000a0 5b f7 31 c1 d0 45 4d 3f 83 15 fc 6b 58 94 5a bf
       0.0008933324155717502 -0.0016222823614396593
0000b0 ac 88 bf 96 7c 57 55 3f 20 26 4b 31 88 b5 24 bf
       0.0013025967300497694 -0.00015799796587705282
0000c0 50 81 54 f8 79 e0 4b bf 34 98 e3 6c c9 95 58 bf
       -0.0008507342869599564 -0.0015005557102596547
0000d0 ee cc a3 0b 45 71 52 bf 3e 22 fd 3d df ba 1d bf
       -0.0011256384155416371 -0.00011341083108818651
0000e0 34 3c 32 a5 0d 46 57 bf d3 f6 26 c0 d4 31 59 3f
       -0.0014205106024609672 0.00153775955605744
0000f0 97 ec 49 5e 01 7b 23 3f 59 48 f2 3d ce 2e 42 3f
       0.00014862434104032505 0.0005548960724743964
000100 ff 65 f2 ee f7 f0 32 3f 3a 1a 05 03 ef 03 23 3f
       0.00028902104436098747 0.00014507572769613554
000110 78 18 5e e5 a0 2d 45 bf fe 55 ab e1 ef 83 36 bf
       -0.0006463084816779171 -0.00034355741960942477
000120 5b 40 8e a5 d3 25 37 bf e0 a7 f8 f0 86 a5 5f bf
       -0.00035320679813200467 -0.001931554583175281
000130 35 1e 30 b0 12 6e 1b bf a2 68 df 9a b5 48 45 bf
       -0.00010463704170159893 -0.0006495367758774415
000140 fe aa b5 35 46 8a 4b 3f 37 a4 d1 d0 7d 5c 4a 3f
       0.0008404581853203861 0.0008044828733889735
000150 74 b8 82 b3 19 0d 03 3f e6 89 3c b7 88 4c 4a 3f
       3.633722957495445e-05 0.0008025806004961472
000160 0c 1b 97 3f 83 b4 35 3f 3b 9b b5 c5 0c a5 61 bf
       0.0003311939650213903 -0.00215389723387052
000170 f8 69 4a 98 e9 3d 43 3f 14 e5 c3 4b bf 57 5d 3f
       0.0005872145271326725 0.001790940105875831

Variable:16 f8 [8, 1]
000000 51 da 08 27 d2 b8 80 bf 32 8b 39 6f 9b 41 a8 3f
       -0.008165017906418688 0.047375542952769925
000010 27 a4 0a c3 92 81 55 bf 65 9e 2e 17 02 5f 77 bf
       -0.0013126309606070836 -0.005705841222983209
000020 1d 13 03 62 13 b0 55 bf c6 d9 1a 71 4c 8e 37 3f
       -0.0013237180028664094 0.00035943380599281723
000030 f9 28 d8 79 31 ef 96 3f 09 33 0a 57 33 a7 81 bf
       0.02239682489565895 -0.008619690984482913

Variable:20 f8 [4, 8]
000000 80 13 2b 74 c0 bc 68 bf d2 b9 81 f9 df d5 6d bf
       -0.0030196913588462215 -0.0036420225624660208
000010 3b 3f 23 32 61 ea 27 bf 17 e3 a5 f9 f6 16 6a bf
       -0.0001824611327436667 -0.0031847785696154196
000020 0d 78 d2 4a b0 fb 13 3f 36 0e 73 d5 81 e7 50 bf
       7.622970106743749e-05 -0.0010317581089091094
000030 06 34 8b 43 a2 78 3c bf 87 7f 7f b9 9f f9 4f bf
       -0.000434436431118013 -0.000975802412536795
000040 fc c7 c1 2f 06 e9 56 bf 98 75 a7 03 15 55 98 bf
       -0.001398330728104912 -0.023762062404662027
000050 a8 78 3d 9a c8 83 33 bf a9 1f 55 0d 2d f3 50 bf
       -0.000297771907062381 -0.001034540172740942
000060 1b f7 ae 38 37 01 32 3f 4e 46 29 bc a0 44 53 bf
       0.0002747306650084811 -0.0011760301282674082
000070 a0 79 52 5d dc 41 86 bf 80 4f 78 65 41 c2 66 3f
       -0.010867807004896701 0.0027781750939172567
000080 2c 2b 72 31 ce 98 71 bf 23 4b 6f e5 01 85 88 3f
       -0.004296117250428815 0.01197244149617444
000090 6b da 51 24 ed 25 50 3f 78 bb bf 05 1b cb 78 bf
       0.0009856048430073826 -0.006053071552726823
0000a0 0f 73 cc b9 2e 44 50 3f c1 33 9a f2 bf f6 30 3f
       0.0009928184801488193 0.00025884805891323795
0000b0 c4 f8 d0 ad ea e9 75 3f db fb b9 1c 99 cd 33 bf
       0.005350033488012499 -0.000302171593581533
0000c0 50 44 df df 5b 2d 6e 3f 21 62 51 d5 73 9e a4 bf
       0.003683738176711894 -0.04027139643648448
0000d0 3d 1f 59 c1 5b 06 5c 3f 6c e6 96 bc d0 7e 48 3f
       0.0017105003402253093 0.0007475394460733759
0000e0 00 88 4e 69 6c f5 41 3f 1c 8a a3 ba c9 52 3e bf
       0.0005480555870358561 -0.00046269822145297997
0000f0 79 61 9b d4 b8 72 93 bf df 6a d2 80 0d 1b 6b 3f
       -0.018992317177294524 0.003308798192461423

Variable:21 f8 [4, 1]
000000 a0 9b 64 32 8c f0 af bf 91 4d c2 d7 ed 00 c3 bf
       -0.06238210787915155 -0.1484658530722354
000010 84 4c d3 83 3a ec a0 bf 76 5f d2 79 30 cd ce bf
       -0.033052280990568256 -0.24063688228920527

Variable:25 f8 [1, 4]
000000 88 68 99 a6 d1 ee a6 3f a5 05 ef ff 46 98 c3 3f
       0.04479079397852198 0.1530846357036754
000010 3b 14 6b e4 34 a3 9e bf 15 3a 79 0d 89 8c cf 3f
       -0.029919458810372595 0.2464762988842756

Variable:26 f8 [1, 1]
000000 76 ff 69 59 79 68 bf bf
       -0.12268789704284963
