example/epoches10/my_weights.npz (npz, 5282 bytes, 15 tensors)

Variable:0 f8 [13, 1]
000000 00 00 00 00 00 00 00 00 00 00 00 00 00 00 00 00
       0.0 0.0
000010 00 00 00 00 00 00 f0 3f 00 00 00 00 00 00 00 00
       1.0 0.0
000020 00 00 00 00 00 00 f0 3f 00 00 00 00 00 00 40 40
       1.0 32.0
000030 00 00 00 00 00 00 00 00 00 00 00 00 00 00 00 00
       0.0 0.0
000040 00 00 00 00 00 00 1f 40 00 00 00 00 00 00 00 00
       7.75 0.0
000050 00 00 00 00 00 00 00 00 00 00 00 00 00 00 f0 3f
       0.0 1.0
000060 00 00 00 00 00 00 00 00
       0.0

Variable:1 f8 [3, 1]
000000 00 00 00 00 00 00 00 00 00 00 00 00 00 00 00 00
       0.0 0.0
000010 00 00 00 00 00 00 f0 3f
       1.0

Variable:2 f8 [2, 1]
000000 00 00 00 00 00 00 00 00 00 00 00 00 00 00 f0 3f
       0.0 1.0

Variable:3 f8 [4, 1]
000000 00 00 00 00 00 00 00 00 00 00 00 00 00 00 00 00
       0.0 0.0
000010 00 00 00 00 00 00 f0 3f 00 00 00 00 00 00 00 00
       1.0 0.0

Variable:5 f8 [1, 13]
000000 01 1a b9 42 49 0a d1 3f 44 62 9a 79 b2 9f d5 3f
       0.26625281825945996 0.3378721416025068
000010 b9 77 84 55 1b fb cd bf 2c c3 6e ab 3a 64 da 3f
       -0.23422567058235957 0.4123675035616994
000020 aa 42 68 89 0c 4b cf bf 57 70 b2 9f 64 f9 85 bf
       -0.24447781285609455 -0.010729585765425194
000030 52 7a d3 45 9d 0d c2 bf 53 93 0a 65 f1 6e 90 bf
       -0.1410404768893892 -0.016048213760444806
000040 e4 f4 7a 07 7a 2e 89 3f 3b ed 0c 57 59 8b c4 3f
       0.01229567847564756 0.1605025935221905
000050 68 40 af 29 e0 66 bd 3f 74 2a 4a 22 3b c5 b7 bf
       0.11485100763025147 -0.09285325610304956
000060 7b 72 6d 40 0f 58 c2 bf
       -0.14331236501574893

Variable:6 f8 [2, 3]
000000 f0 a0 bf f2 bb ef c9 bf f2 2f f6 3c 5e ea b9 bf
       -0.20262860634762303 -0.10123242367097854
000010 11 6d 89 ea 48 e5 cc 3f 71 ef 11 a0 60 b3 c0 3f
       0.2257472176741904 0.130474165114602
000020 09 fc dd fb d6 73 b1 3f 5f c2 75 b0 a7 48 c3 bf
       0.06817382477855473 -0.1506547557469444

Variable:7 f8 [2, 2]
000000 e3 5a 51 01 79 0a d4 3f 7e 87 ed df fd c6 d4 bf
       0.3131392014378617 -0.32464548938707327
000010 6c 79 69 5c ee b1 d1 3f fc 2f 65 c2 71 12 d2 bf
       0.2764850523434663 -0.2823757551566357

Variable:8 f8 [2, 4]
000000 ec ad 5e 73 c6 d9 82 3f 4d 77 c4 61 9f 85 b2 3f
       0.009204435725982806 0.07235141884708902
000010 79 cd 91 78 74 cf 87 3f 45 22 2f 5e a2 70 b8 bf
       0.011626157693376925 -0.09546866225640212
000020 18 59 4d 4c 28 2c 63 3f f6 61 8b 7b e8 81 a6 3f
       0.0023403918334380484 0.043959870415793675
000030 19 95 6e a9 e4 6d 7f 3f a6 5b 4c de 60 d7 ac bf
       0.0076731617072358866 -0.05633070672609301

Variable:9 f8 [1, 1]
000000 ad 29 96 fa e5 bc bb bf
       -0.10835111015163675

Variable:15 f8 [8, 6]
000000 60 6b 5c b1 4e 21 a5 bf ed a7 5d 67 be 7d 9e 3f
       -0.041269740248216946 0.02977654939551393
000010 22 88 8c ec 4e aa b6 3f 87 13 8d 64 bb 21 b4 3f
       0.08853619837876228 0.07863970951900799
000020 d4 e0 d2 fd b5 4b 93 bf 3e d0 3a a7 a0 28 89 bf
       -0.018843501679584332 -0.012284522155234009
000030 27 da 51 46 55 cd bc bf 89 e2 c6 d4 00 8a b0 3f
       -0.11250813452520757 0.06460576243160622
000040 4f 8e 70 36 46 66 cc 3f 32 72 70 d0 67 06 c9 3f
       0.22187116296946605 0.1955079810876597
000050 c7 cc 78 93 e4 b4 90 3f 65 48 ba 0c bc ee 76 3f
       0.01631505155655757 0.005598768777092732
000060 5b 17 cb 17 98 94 b2 bf 26 c5 7f 11 bb c4 a6 3f
       -0.07257986622707106 0.04446968639957509
000070 ff d6 31 a1 ac 08 c5 3f 3e ea 8c 70 bc 8b c2 3f
       0.1643272196849281 0.14488940711619763
000080 e6 0f 69 c1 2b 26 67 3f 00 f6 9a 7f 4c 6b 62 bf
       0.002825818500499 -0.0022484296904099477
000090 a9 39 aa a2 ea ee cd 3f ca 6f cc 4f 1d 0f c4 bf
       0.23385365431427133 -0.15671125790038182
0000a0 f8 ad 0e ac 6e 3a d5 bf 2b e8 94 41 47 8f d2 bf
       -0.33169142534708795 -0.28999501614055373
0000b0 b0 39 f8 58 40 9d ba bf 7d f5 fb c2 2d 1d b0 bf
       -0.1039619652949344 -0.06294523249012758
0000c0 e2 d2 a9 64 4a 47 b4 bf 7f 8e 9c 06 95 2b a8 3f
       -0.07921280820466906 0.04720750528056516
0000d0 a1 9b 77 75 71 fd c6 3f 8f 47 3d 3e be 1e c4 3f
       0.1796094726152804 0.15718820609123127
0000e0 b8 67 96 bf 0e 8d 76 3f e3 5b 8b a0 32 18 60 3f
       0.005505616770642811 0.001964663392168374
0000f0 38 23 95 75 9f a0 bb bf ac 84 95 93 b5 49 af 3f
       -0.10791966076534443 0.06110923220217876
000100 36 aa 30 54 50 c6 cb 3f 9a f8 b1 bc 7b 6f c8 3f
       0.2169895564159831 0.1909022017825393
000110 d9 fd b3 c6 e2 11 90 3f 5c cf 87 52 7f 48 7c 3f
       0.015693229081987645 0.006905076363626108
000120 3a 64 92 e3 d4 ff b3 bf 56 19 06 0e c7 13 a8 3f
       -0.0781224303813283 0.0470258907908369
000130 ef 0b 71 50 7a 52 c6 3f c0 22 6f e3 61 dc c3 3f
       0.17439202239810878 0.15516303639585338
000140 b4 fc 4e f9 96 28 7a 3f 9e 6d 91 92 4a 3b 66 3f
       0.006386365644117809 0.002713819169498157
000150 91 28 02 47 0d f3 b7 bf c7 40 80 b2 0d 2e ac 3f
       -0.09355242713550839 0.055038860358878554
000160 13 6c 7f d4 51 d0 c9 3f 81 a2 5f ea 59 a6 c6 3f
       0.2016699111544261 0.1769516367342199
000170 9a df a6 ce f2 2e 8a 3f 5c 6c 94 c4 9d 9f 78 3f
       0.012784859591974219 0.006011596947497724

Variable:16 f8 [8, 1]
000000 b0 34 90 0a ca 2c 62 3f 64 9b 3e da 9c f5 c5 bf
       0.002218622791139234 -0.17155800491783701
000010 cd 94 30 37 02 c2 b5 bf f6 87 0a 60 39 c6 d0 3f
       -0.08499158713728434 0.26209864024178786
000020 b6 f2 5f f6 e2 d2 b8 bf 59 24 32 b6 eb 44 c5 bf
       -0.09696787371644686 -0.16616579433710646
000030 64 b4 a5 2c 4d 28 b8 bf 39 77 5c 3b e8 56 c1 bf
       -0.09436495151540353 -0.13546469591613589

Variable:20 f8 [4, 8]
000000 62 ab 63 57 19 16 93 bf 30 1f f8 05 39 f3 ab bf
       -0.018638988455602308 -0.0545900172983792
000010 56 03 a4 61 59 84 a4 bf a9 50 df 65 e3 cc ca 3f
       -0.04007224385168821 0.2093776938842258
000020 ee cd 99 7d 94 c1 a8 bf e6 38 48 73 f1 a0 ac bf
       -0.04835189851010201 -0.055915398905300326
000030 d2 5e ae 27 ba 66 a6 bf 8e 26 c4 83 68 d2 a8 bf
       -0.043752496093643636 -0.04848028763269695
000040 d7 23 0c 77 a8 8c 9c bf 92 f1 6d 98 1d 11 ae bf
       -0.02788031794174003 -0.05872433171950599
000050 35 f1 64 ab 41 08 a7 bf 80 22 b9 65 72 1e c1 3f
       -0.04498486726012844 0.13374166457130698
000060 11 8f b8 17 3a 2b a8 bf cf f1 e6 a9 b2 f3 ad bf
       -0.04720479526102229 -0.05849989246368958
000070 46 07 ea 92 67 f8 a8 bf 91 5a 2e c8 2a d8 ab bf
       -0.04877017658601672 -0.054383599220433905
000080 0e eb 80 a6 b9 ce a3 bf bb a7 dd 02 6d 81 b8 bf
       -0.03868656308664785 -0.09572488136259853
000090 60 32 2d e6 55 ee b2 bf 31 27 ec 46 70 ed cb 3f
       -0.07394921178383518 0.21818355048190477
0000a0 2b 81 59 05 9b 47 b4 bf 21 71 82 96 29 28 b8 bf
       -0.07921761398893483 -0.09436283039616856
0000b0 d6 dd 4a 00 fd dc b3 bf d8 44 f9 f4 42 c5 b6 bf
       -0.0775907636369689 -0.08894747238925349
0000c0 df ac 04 36 a9 23 ba bf a7 c2 95 59 e9 0e d1 bf
       -0.10210664337926144 -0.2665351271489648
0000d0 b7 3e 37 75 05 f9 c7 bf 15 79 5d 54 de 57 d7 3f
       -0.1872870275824334 0.3647380660894595
0000e0 88 45 7a da 3d f6 c9 bf 22 29 dc 35 b2 56 d0 bf
       -0.202827197721984 -0.2552915121056164
0000f0 4d d3 c5 e8 52 5c c9 bf 43 5f fe ea 09 bc cd bf
       -0.19813000074250411 -0.23230098699854737

Variable:21 f8 [4, 1]
000000 bd d9 38 02 45 a7 98 bf f8 9c 91 5c bd b9 8f 3f
       -0.02407558275282339 0.015490989100909833
000010 49 02 7a 23 2a cd 96 3f 8b f7 18 02 8a d6 d8 3f
       0.022267015853233017 0.38809442715489045

Variable:25 f8 [1, 4]
000000 81 fd 53 f7 0f cd b1 bf b3 db f2 f7 d1 00 b6 bf
       -0.0695352534130418 -0.08595001510080529
000010 30 f2 55 d7 a4 4e bf bf d7 38 b8 1e 74 e0 db bf
       -0.12229376084537402 -0.43557456016504886

Variable:26 f8 [1, 1]
000000 1b 32 d8 df 44 8a bb bf
       -0.10757856812433213
