example/epoches10/my_weights.npz (npz, 5282 bytes, 15 tensors)

Variable:0 f8 [13, 1]
0	0x0000000000000000	0.0
1	0x0000000000000000	0.0
2	0x3ff0000000000000	1.0
3	0x0000000000000000	0.0
4	0x3ff0000000000000	1.0
5	0x4040000000000000	32.0
6	0x0000000000000000	0.0
7	0x0000000000000000	0.0
8	0x401f000000000000	7.75
9	0x0000000000000000	0.0
10	0x0000000000000000	0.0
11	0x3ff0000000000000	1.0
12	0x0000000000000000	0.0

Variable:1 f8 [3, 1]
0	0x0000000000000000	0.0
1	0x0000000000000000	0.0
2	0x3ff0000000000000	1.0

Variable:2 f8 [2, 1]
0	0x0000000000000000	0.0
1	0x3ff0000000000000	1.0

Variable:3 f8 [4, 1]
0	0x0000000000000000	0.0
1	0x0000000000000000	0.0
2	0x3ff0000000000000	1.0
3	0x0000000000000000	0.0

Variable:5 f8 [1, 13]
0	0x3fd19560322f2e25	0.27474217320261324
1	0x3fd561d1a7d91b4f	0.33409539595998167
2	0xbfcdc0bddd299843	-0.23244450854253004
3	0x3fda7c2b2d3b492e	0.4138286534990979
4	0xbfcf15a25cfd6f2a	-0.24284772434736485
5	0xbf879dbb3919f50e	-0.01153131740579252
6	0xbfc285a6d1f62cb3	-0.14470372440368848
7	0xbf8d2cc070074621	-0.014245513361774322
8	0x3f88986da53e1132	0.01200948391466081
9	0x3fc46377a634b088	0.15928550353544702
10	0x3fbdcf262217ac90	0.11644209225021229
11	0xbfb7b810e443aa0f	-0.09265237400874347
12	0xbfc24c710839f2f0	-0.1429578104179181

Variable:6 f8 [2, 3]
0	0xbf49f1c5d684f50a	-0.0007917610173887879
1	0xbf3c62964c69adda	-0.0004331223430315813
2	0x3f3a6287431e5fd4	0.00040260126399393787
3	0x3f58f42fa4ac9bea	0.0015230622545432345
4	0x3f4dade049f36236	0.0009057374153612133
5	0xbf731a5020a89084	-0.00466376590569351

Variable:7 f8 [2, 2]
0	0xbf85eaa7060685c6	-0.010701470252402322
1	0x3f87c806f2ff3107	0.011611990252184968
2	0x3f952f6b9f81a1d9	0.020688706980225156
3	0xbf9901d05841ce80	-0.024420981776030803

Variable:8 f8 [2, 4]
0	0x3f1f621fa9c2cd90	0.00011971777206803134
1	0xbf5dae137c19797c	-0.0018115225106139768
2	0x3f599b1bd35781dc	0.001562859700577338
3	0x3f56cc4f5b3335b3	0.0013914847339039193
4	0x3f50b08e3c12d428	0.0010186566362737712
5	0x3f18cf30788d30b8	9.464009612009355e-05
6	0x3f4e57b373ec599b	0.0009259821161744954
7	0x3f545eb6067acf82	0.001243283995717243

Variable:9 f8 [1, 1]
0	0xbfbbf020e18f3974	-0.10913281924078949

Variable:15 f8 [8, 6]
0	0xbf301906a95962f5	-0.0002456322921254161
1	0x3f6301515591e5ca	0.0023199642715183476
2	0xbf7d0f47f5758595	-0.007094651307256857
3	0x3f8ed24af7ceeabb	0.01504953926802465
4	0xbf59c8e8c3f044b7	-0.0015737794017279102
5	0x3ef23a34b2a151fb	1.738297138616401e-05
6	0xbf46789af7eb8947	-0.0006857639962983075
7	0xbf55c54956e6f844	-0.0013287750440294102
8	0xbf69403c5a78022c	-0.0030823878075809854
9	0x3f78e0fadb153eda	0.006073932557526718
10	0xbf6287b127bcea03	-0.0022619686186804446
11	0xbf4eed2ea14855a6	-0.0009438016591640133
12	0xbf4f112a91277811	-0.0009480913016053379
13	0x3f4b815401a36253	0.0008393917262550877
14	0x3f2a01f21439ad90	0.0001984222418401735
15	0x3f737c8a4b559576	0.0047574426765540825
16	0xbf543dc5ad77f8d7	-0.0012354307599476333
17	0xbf3bfae06b95ab25	-0.00042694071779318866
18	0x3f31014346d2fcdd	0.0002594746827746084
19	0x3f2d15181fd803f4	0.00022188109862500383
20	0xbf6c55f6df2da8b8	-0.003458959742990233
21	0x3f793a938b78d940	0.006159378382611103
22	0xbf5d779d23ad6a32	-0.0017985376896009317
23	0x3f3bc9801919981f	0.0004239976634380377
24	0xbf5dda447dfb1a52	-0.001822058569744951
25	0x3f68b1d3d401a2eb	0.0030144822376779643
26	0xbf8239600834ada9	-0.008898496866627097
27	0x3f90e22b8ad18b1e	0.01648777041226445
28	0x3f50412fef9f1273	0.0009921043515400934
29	0xbf53099a8f92a474	-0.001161957681953288
30	0x3f30e839b31aebb0	0.0002579823368297719
31	0x3f69fae045a6a257	0.0031713848413413115
32	0xbf849055c54b14e4	-0.010040922244466129
33	0x3f945af06e0d8574	0.019878155438509862
34	0xbf59a99762e54933	-0.0015663126356072032
35	0xbf434d4959becf0f	-0.0005890472561902188
36	0x3f560be099dc8142	0.0013456052178711518
37	0x3ef5e07fa1d2f452	2.086348296325244e-05
38	0xbf5ea2dab215051e	-0.001869882173494659
39	0x3f6c28686e2e0b91	0.0034372367530876653
40	0x3f4feca46bcd8de9	0.0009742548787525204
41	0xbf2bf2a946daf8d9	-0.0002132255207722481
42	0xbf46de02ab60ae1c	-0.0006978524240869896
43	0x3f584242b08241ef	0.001480641485645969
44	0xbf65aafefc3c35f9	-0.0026450138265150494
45	0x3f7e83c2fc287e1b	0.007449876461151496
46	0xbf4e1c8d0b18c4e0	-0.0009189308822838103
47	0xbf183fdd42696c06	-9.250438652357037e-05

Variable:16 f8 [8, 1]
0	0xbfc358ad6b69593e	-0.15114372009947802
1	0xbfb39e26658cf671	-0.07663192729247627
2	0xbfa47edd1efa15f0	-0.04003039363037064
3	0xbfb3e21960bd1189	-0.07766874896794297
4	0xbfc694622c8d4029	-0.176403304818906
5	0xbfc81c1ceac93f8d	-0.18835793937841708
6	0xbfab34ee9b403382	-0.05313821454192348
7	0xbfb6199bd86948be	-0.08632825883367709

Variable:20 f8 [4, 8]
0	0x3f6e8f5e6a818263	0.003730472952199458
1	0x3f5b30a24112707c	0.0016595444215346247
2	0x3f347c88071f8f3f	0.00031259842864827034
3	0xbf15d21b68805932	-8.323948179653621e-05
4	0x3f6a72ae394d63ca	0.003228512078220257
5	0x3f6ebd4a17cba863	0.0037523696067767605
6	0xbf366d1250e8514d	-0.00034219453019203734
7	0x3f6a1a8ce8ac6463	0.0031864883543560193
8	0xbf57235b3143e7b8	-0.0014122381735987965
9	0x3f36e226de34df4e	0.000349173058754361
10	0xbf837beabe9844b5	-0.009513696614734316
11	0x3f4b67d2dcea304e	0.0008363513569107446
12	0xbf5a1fd7c38526a8	-0.0015945059841037477
13	0xbf808534bf534341	-0.008066570366652594
14	0x3f2a409a99602672	0.00020028960415201556
15	0x3f5c38f98234c925	0.0017225681884381419
16	0xbfc36d93ffbbdee9	-0.15178155886655212
17	0xbfb3a917959468b9	-0.0767988910851355
18	0xbfa45cff190d854d	-0.03977200680561541
19	0xbfb3ea4d1b87a9fb	-0.07779390260808576
20	0xbfc6c375ac2cc954	-0.17783995539645991
21	0xbfc8621d525f4d07	-0.19049421808322384
22	0xbfab4ad8d5dda0ea	-0.0533054123941968
23	0xbfb61db7fd9e9f33	-0.08639097158322499
24	0x3f90159d58812fbf	0.01570745327653333
25	0x3f62d45fd0f5b88e	0.0022985335742112317
26	0x3f5d505b7b33c400	0.001789178216139442
27	0x3f650ac2f004d5a9	0.0025686080336082173
28	0x3f90f28e1339d2ae	0.016550273822263754
29	0x3f938340ee27572a	0.01905538037848157
30	0x3f65d7f80618d8f3	0.002666458531872634
31	0x3f74775222afb989	0.004996605722210731

Variable:21 f8 [4, 1]
0	0xbfaee5c73b46568c	-0.06034681891030144
1	0xbfa745923f7d4a14	-0.04545266175286514
2	0x3fda1ec41f5095cb	0.4081278138931707
3	0xbfc4848f689a218a	-0.16029541595004232

Variable:25 f8 [1, 4]
0	0x3faf4c28e43b8dd7	0.061127927647045936
1	0xbfa755b15ffce05f	-0.04557565972066934
2	0xbfda24387839029d	-0.40846072903154057
3	0x3fce7d1c2e3dace2	0.2381930566583384

Variable:26 f8 [1, 1]
0	0xbfbcb21d23db6a58	-0.11209280133645316
